…
ion='prec_at_8', gpu='0', num_workers=0, tune_wordemb=True, random_seed=1, thres=0.5, longformer_dir='', reader_conv_num=2, reader_trans_num=4, trans_ff_dim=1024, num_code_title_tokens=36, code_title_filter_size=9, lstm_hidden_dim=512, attn_dim=512, scheduler=0.9, scheduler_patience=5, command='python main.py', gpu_list=[0])
loading lookups...
Depth 0: 34
Depth 1: 270
Depth 2: 1158
Depth 3: 5137
Depth 4: 8921
Training hyperbolic embeddings...
loading pretrained embeddings from ./data/mimic3/processed_full_100.embed
adding unk embedding
MultiResCNN(
  (word_rep): WordRep(
    (embed): Embedding(51921, 100, padding_idx=0)
    (embed_drop): Dropout(p=0.2, inplace=False)
  )
  (conv): ModuleList(
    (channel-3): ModuleList(
      (baseconv): Conv1d(100, 100, kernel_size=(3,), stride=(1,), padding=(1,))
      (resconv-0): ResidualBlock(
        (left): Sequential(
          (0): Conv1d(100, 50, kernel_size=(3,), stride=(1,), padding=(1,), bias=False)
          (1): BatchNorm1d(50, eps=1e-05, momentum=0.1, affine=True, track_running_stats=True)
          (2): Tanh()
          (3): Conv1d(50, 50, kernel_size=(3,), stride=(1,), padding=(1,), bias=False)
          (4): BatchNorm1d(50, eps=1e-05, momentum=0.1, affine=True, track_running_stats=True)
        )
        (shortcut): Sequential(
          (0): Conv1d(100, 50, kernel_size=(1,), stride=(1,), bias=False)
          (1): BatchNorm1d(50, eps=1e-05, momentum=0.1, affine=True, track_running_stats=True)
        )
        (dropout): Dropout(p=0.2, inplace=False)
      )
    )
    (channel-5): ModuleList(
      (baseconv): Conv1d(100, 100, kernel_size=(5,), stride=(1,), padding=(2,))
      (resconv-0): ResidualBlock(
        (left): Sequential(
          (0): Conv1d(100, 50, kernel_size=(5,), stride=(1,), padding=(2,), bias=False)
          (1): BatchNorm1d(50, eps=1e-05, momentum=0.1, affine=True, track_running_stats=True)
          (2): Tanh()
          (3): Conv1d(50, 50, kernel_size=(5,), stride=(1,), padding=(2,), bias=False)
          (4): BatchNorm1d(50, eps=1e-05, momentum=0.1, affine=True, track_running_stats=True)
        )
        (shortcut): Sequential(
          (0): Conv1d(100, 50, kernel_size=(1,), stride=(1,), bias=False)
          (1): BatchNorm1d(50, eps=1e-05, momentum=0.1, affine=True, track_running_stats=True)
        )
        (dropout): Dropout(p=0.2, inplace=False)
      )
    )
    (channel-9): ModuleList(
      (baseconv): Conv1d(100, 100, kernel_size=(9,), stride=(1,), padding=(4,))
      (resconv-0): ResidualBlock(
        (left): Sequential(
          (0): Conv1d(100, 50, kernel_size=(9,), stride=(1,), padding=(4,), bias=False)
          (1): BatchNorm1d(50, eps=1e-05, momentum=0.1, affine=True, track_running_stats=True)
          (2): Tanh()
          (3): Conv1d(50, 50, kernel_size=(9,), stride=(1,), padding=(4,), bias=False)
          (4): BatchNorm1d(50, eps=1e-05, momentum=0.1, affine=True, track_running_stats=True)
        )
        (shortcut): Sequential(
          (0): Conv1d(100, 50, kernel_size=(1,), stride=(1,), bias=False)
          (1): BatchNorm1d(50, eps=1e-05, momentum=0.1, affine=True, track_running_stats=True)
        )
        (dropout): Dropout(p=0.2, inplace=False)
      )
    )
    (channel-15): ModuleList(
      (baseconv): Conv1d(100, 100, kernel_size=(15,), stride=(1,), padding=(7,))
      (resconv-0): ResidualBlock(
        (left): Sequential(
          (0): Conv1d(100, 50, kernel_size=(15,), stride=(1,), padding=(7,), bias=False)
          (1): BatchNorm1d(50, eps=1e-05, momentum=0.1, affine=True, track_running_stats=True)
          (2): Tanh()
          (3): Conv1d(50, 50, kernel_size=(15,), stride=(1,), padding=(7,), bias=False)
          (4): BatchNorm1d(50, eps=1e-05, momentum=0.1, affine=True, track_running_stats=True)
        )
        (shortcut): Sequential(
          (0): Conv1d(100, 50, kernel_size=(1,), stride=(1,), bias=False)
          (1): BatchNorm1d(50, eps=1e-05, momentum=0.1, affine=True, track_running_stats=True)
        )
        (dropout): Dropout(p=0.2, inplace=False)
      )
    )
    (channel-19): ModuleList(
      (baseconv): Conv1d(100, 100, kernel_size=(19,), stride=(1,), padding=(9,))
      (resconv-0): ResidualBlock(
        (left): Sequential(
          (0): Conv1d(100, 50, kernel_size=(19,), stride=(1,), padding=(9,), bias=False)
          (1): BatchNorm1d(50, eps=1e-05, momentum=0.1, affine=True, track_running_stats=True)
          (2): Tanh()
          (3): Conv1d(50, 50, kernel_size=(19,), stride=(1,), padding=(9,), bias=False)
          (4): BatchNorm1d(50, eps=1e-05, momentum=0.1, affine=True, track_running_stats=True)
        )
        (shortcut): Sequential(
          (0): Conv1d(100, 50, kernel_size=(1,), stride=(1,), bias=False)
          (1): BatchNorm1d(50, eps=1e-05, momentum=0.1, affine=True, track_running_stats=True)
        )
        (dropout): Dropout(p=0.2, inplace=False)
      )
    )
    (channel-25): ModuleList(
      (baseconv): Conv1d(100, 100, kernel_size=(25,), stride=(1,), padding=(12,))
      (resconv-0): ResidualBlock(
        (left): Sequential(
          (0): Conv1d(100, 50, kernel_size=(25,), stride=(1,), padding=(12,), bias=False)
          (1): BatchNorm1d(50, eps=1e-05, momentum=0.1, affine=True, track_running_stats=True)
          (2): Tanh()
          (3): Conv1d(50, 50, kernel_size=(25,), stride=(1,), padding=(12,), bias=False)
          (4): BatchNorm1d(50, eps=1e-05, momentum=0.1, affine=True, track_running_stats=True)
        )
        (shortcut): Sequential(
          (0): Conv1d(100, 50, kernel_size=(1,), stride=(1,), bias=False)
          (1): BatchNorm1d(50, eps=1e-05, momentum=0.1, affine=True, track_running_stats=True)
        )
        (dropout): Dropout(p=0.2, inplace=False)
      )
    )
  )
  (decoder): Decoder(
    (decoder_dict): ModuleDict(
      (0_0): Linear(in_features=300, out_features=34, bias=True)
      (0_1): Linear(in_features=300, out_features=34, bias=True)
      (1_0): Linear(in_features=300, out_features=270, bias=True)
      (1_1): Linear(in_features=300, out_features=270, bias=True)
      (2_0): Linear(in_features=300, out_features=1158, bias=True)
      (2_1): Linear(in_features=300, out_features=1158, bias=True)
      (3_0): Linear(in_features=300, out_features=5137, bias=True)
      (3_1): Linear(in_features=300, out_features=5137, bias=True)
      (4_0): Linear(in_features=300, out_features=8921, bias=True)
      (4_1): Linear(in_features=300, out_features=8921, bias=True)
    )
    (hyperbolic_fc_dict): ModuleDict(
      (0): Linear(in_features=50, out_features=300, bias=True)
      (1): Linear(in_features=50, out_features=300, bias=True)
      (2): Linear(in_features=50, out_features=300, bias=True)
      (3): Linear(in_features=50, out_features=300, bias=True)
      (4): Linear(in_features=50, out_features=300, bias=True)
    )
    (loss_function): BCEWithLogitsLoss()
  )
)
train_instances 47719
dev_instances 1631
test_instances 3372
Total epochs at each level: [2, 3, 5, 6, 7]
Training model at depth 0:
EPOCH 0
epoch finish in 596.55s, loss: 0.2857
file for evaluation: ./data/mimic3/dev_full.csv

[MACRO] accuracy, precision, recall, f-measure, AUC
0.4733, 0.6131, 0.5658, 0.5885, 0.8732
…
