…
vocab.csv --decoder HierarchicalHyperbolic --loss ASL --asl_config 1,0,0.03 --Y 50 --data_path ./data/mimic3/train_50.csv --MAX_LENGTH 4096 --embed_file ./data/mimic3/processed_full_100.embed --tune_wordemb --batch_size 8 --lr 5e-5 --depth 5 --n_epochs 2,2,3,5,50 --criterion prec_at_8 --random_seed 0 --num_workers 8', gpu_list=[0])
loading lookups...
Depth 0: 14
Depth 1: 30
Depth 2: 39
Depth 3: 47
Depth 4: 50
Training hyperbolic embeddings...
loading pretrained embeddings from ./data/mimic3/processed_full_100.embed
adding unk embedding
MultiResCNN(
  (word_rep): WordRep(
    (embed): Embedding(51921, 100, padding_idx=0)
    (embed_drop): Dropout(p=0.2, inplace=False)
  )
  (conv): ModuleList(
    (0): ModuleList(
      (0): Conv1d(100, 100, kernel_size=(3,), stride=(1,), padding=(1,))
      (1): ResidualBlock(
        (left): Sequential(
          (0): Conv1d(100, 50, kernel_size=(3,), stride=(1,), padding=(1,), bias=False)
          (1): BatchNorm1d(50, eps=1e-05, momentum=0.1, affine=True, track_running_stats=True)
          (2): Tanh()
          (3): Conv1d(50, 50, kernel_size=(3,), stride=(1,), padding=(1,), bias=False)
          (4): BatchNorm1d(50, eps=1e-05, momentum=0.1, affine=True, track_running_stats=True)
        )
        (shortcut): Sequential(
          (0): Conv1d(100, 50, kernel_size=(1,), stride=(1,), bias=False)
          (1): BatchNorm1d(50, eps=1e-05, momentum=0.1, affine=True, track_running_stats=True)
        )
        (dropout): Dropout(p=0.2, inplace=False)
      )
    )
    (1): ModuleList(
      (0): Conv1d(100, 100, kernel_size=(5,), stride=(1,), padding=(2,))
      (1): ResidualBlock(
        (left): Sequential(
          (0): Conv1d(100, 50, kernel_size=(5,), stride=(1,), padding=(2,), bias=False)
          (1): BatchNorm1d(50, eps=1e-05, momentum=0.1, affine=True, track_running_stats=True)
          (2): Tanh()
          (3): Conv1d(50, 50, kernel_size=(5,), stride=(1,), padding=(2,), bias=False)
          (4): BatchNorm1d(50, eps=1e-05, momentum=0.1, affine=True, track_running_stats=True)
        )
        (shortcut): Sequential(
          (0): Conv1d(100, 50, kernel_size=(1,), stride=(1,), bias=False)
          (1): BatchNorm1d(50, eps=1e-05, momentum=0.1, affine=True, track_running_stats=True)
        )
        (dropout): Dropout(p=0.2, inplace=False)
      )
    )
    (2): ModuleList(
      (0): Conv1d(100, 100, kernel_size=(9,), stride=(1,), padding=(4,))
      (1): ResidualBlock(
        (left): Sequential(
          (0): Conv1d(100, 50, kernel_size=(9,), stride=(1,), padding=(4,), bias=False)
          (1): BatchNorm1d(50, eps=1e-05, momentum=0.1, affine=True, track_running_stats=True)
          (2): Tanh()
          (3): Conv1d(50, 50, kernel_size=(9,), stride=(1,), padding=(4,), bias=False)
          (4): BatchNorm1d(50, eps=1e-05, momentum=0.1, affine=True, track_running_stats=True)
        )
        (shortcut): Sequential(
          (0): Conv1d(100, 50, kernel_size=(1,), stride=(1,), bias=False)
          (1): BatchNorm1d(50, eps=1e-05, momentum=0.1, affine=True, track_running_stats=True)
        )
        (dropout): Dropout(p=0.2, inplace=False)
      )
    )
    (3): ModuleList(
      (0): Conv1d(100, 100, kernel_size=(15,), stride=(1,), padding=(7,))
      (1): ResidualBlock(
        (left): Sequential(
          (0): Conv1d(100, 50, kernel_size=(15,), stride=(1,), padding=(7,), bias=False)
          (1): BatchNorm1d(50, eps=1e-05, momentum=0.1, affine=True, track_running_stats=True)
          (2): Tanh()
          (3): Conv1d(50, 50, kernel_size=(15,), stride=(1,), padding=(7,), bias=False)
          (4): BatchNorm1d(50, eps=1e-05, momentum=0.1, affine=True, track_running_stats=True)
        )
        (shortcut): Sequential(
          (0): Conv1d(100, 50, kernel_size=(1,), stride=(1,), bias=False)
          (1): BatchNorm1d(50, eps=1e-05, momentum=0.1, affine=True, track_running_stats=True)
        )
        (dropout): Dropout(p=0.2, inplace=False)
      )
    )
    (4): ModuleList(
      (0): Conv1d(100, 100, kernel_size=(19,), stride=(1,), padding=(9,))
      (1): ResidualBlock(
        (left): Sequential(
          (0): Conv1d(100, 50, kernel_size=(19,), stride=(1,), padding=(9,), bias=False)
          (1): BatchNorm1d(50, eps=1e-05, momentum=0.1, affine=True, track_running_stats=True)
          (2): Tanh()
          (3): Conv1d(50, 50, kernel_size=(19,), stride=(1,), padding=(9,), bias=False)
          (4): BatchNorm1d(50, eps=1e-05, momentum=0.1, affine=True, track_running_stats=True)
        )
        (shortcut): Sequential(
          (0): Conv1d(100, 50, kernel_size=(1,), stride=(1,), bias=False)
          (1): BatchNorm1d(50, eps=1e-05, momentum=0.1, affine=True, track_running_stats=True)
        )
        (dropout): Dropout(p=0.2, inplace=False)
      )
    )
    (5): ModuleList(
      (0): Conv1d(100, 100, kernel_size=(25,), stride=(1,), padding=(12,))
      (1): ResidualBlock(
        (left): Sequential(
          (0): Conv1d(100, 50, kernel_size=(25,), stride=(1,), padding=(12,), bias=False)
          (1): BatchNorm1d(50, eps=1e-05, momentum=0.1, affine=True, track_running_stats=True)
          (2): Tanh()
          (3): Conv1d(50, 50, kernel_size=(25,), stride=(1,), padding=(12,), bias=False)
          (4): BatchNorm1d(50, eps=1e-05, momentum=0.1, affine=True, track_running_stats=True)
        )
        (shortcut): Sequential(
          (0): Conv1d(100, 50, kernel_size=(1,), stride=(1,), bias=False)
          (1): BatchNorm1d(50, eps=1e-05, momentum=0.1, affine=True, track_running_stats=True)
        )
        (dropout): Dropout(p=0.2, inplace=False)
      )
    )
  )
  (decoder): Decoder(
    (decoder_dict): ModuleDict(
      (0_0): Linear(in_features=300, out_features=14, bias=True)
      (0_1): Linear(in_features=300, out_features=14, bias=True)
      (1_0): Linear(in_features=300, out_features=30, bias=True)
      (1_1): Linear(in_features=300, out_features=30, bias=True)
      (2_0): Linear(in_features=300, out_features=39, bias=True)
      (2_1): Linear(in_features=300, out_features=39, bias=True)
      (3_0): Linear(in_features=300, out_features=47, bias=True)
      (3_1): Linear(in_features=300, out_features=47, bias=True)
      (4_0): Linear(in_features=300, out_features=50, bias=True)
      (4_1): Linear(in_features=300, out_features=50, bias=True)
    )
    (hyperbolic_fc_dict): ModuleDict(
      (0): Linear(in_features=50, out_features=300, bias=True)
      (1): Linear(in_features=50, out_features=300, bias=True)
      (2): Linear(in_features=50, out_features=300, bias=True)
      (3): Linear(in_features=50, out_features=300, bias=True)
      (4): Linear(in_features=50, out_features=300, bias=True)
    )
    (loss_function): AsymmetricLoss()
  )
)
train_instances 8066
dev_instances 1573
test_instances 1729
Total epochs at each level: [2, 2, 3, 5, 50]
Training model at depth 0:
EPOCH 0
/usr/lib/python3.10/multiprocessing/popen_fork.py:66: RuntimeWarning: os.fork() was called. os.fork() is incompatible with multithreaded code, and JAX is multithreaded, so this will likely lead to a deadlock.
…
